my-code/model[1600, 35]50_iter_normal.npz (npz, 449048 bytes, 2 tensors)

arr_0 f8 [1600, 35]
0	0xbf9cfb3a95f66a2f	-0.02830211200999083
1	0x3f9a3dcfdfbd3d72	0.025626419096906834
2	0xbf957b97a9794d7b	-0.02097928020368787
3	0x3fa6deb29a0ea284	0.04466779833393722
4	0xbf92c5a390a70552	-0.018332057670482023
5	0xbf81369aae23fe35	-0.00840493053374223
6	0x3fc20c1339142e90	0.14099350249340548
7	0x3fa4cb5870af471d	0.04061390281243702
8	0xbf996e57b31b2fea	-0.024834986025595564
9	0x3fa42a1cbec1508a	0.03938379124215981
10	0xbfbe69f782feb624	-0.11880442569846444
11	0x3fa37db9df50e61d	0.03806858874345329
12	0x3f9f104ddb50eeb9	0.03033563281154159
13	0x3fb280acbba38cbb	0.07227592068697934
14	0xbf8e788e8877ad01	-0.014878381290108768
15	0xbfa2347aabed0248	-0.035556634413755506
16	0x3fa46d8996e3b447	0.039898204487919524
17	0xbf44ca033a7a3bfe	-0.0006344333423430324
18	0xbf9dc42b2605d280	-0.02906863612720878
19	0x3fa0176f97e54b80	0.03142880181498864
20	0xbf9fe0cdcdd299f1	-0.031130996406000425
21	0xbfa30df032f19873	-0.037215715616910304
22	0x3f95b0bf6a178986	0.02118205151590182
23	0xbfb0defb59071761	-0.06590243266609043
24	0xbfade9a4ae271b47	-0.05842318178070243
25	0x3fab6f72aaa001b6	0.05358465512108827
26	0xbf88ca9a7f3a82a9	-0.01210518551607838
27	0x3f86f6b0df00c51d	0.011212713056098661
28	0x3f728ce851578c03	0.004528911105327718
29	0x3f7a8b861c8851c1	0.006480716584082947
30	0xbf9e62ac64dcdef1	-0.029673284202742903
31	0xbf7cf728a494066e	-0.007071646462692633
32	0xbfa53ff7aafcf5c2	-0.04150365793473611
33	0xbfad256e36630e86	-0.05692619718459206
34	0x3f7eeeac6a876751	0.0075518355374358396
35	0x3fa75c9525b3acfc	0.04562822423198473
36	0x3f82fd8c13d0f87e	0.009272665362115125
37	0x3f8a95337df9e323	0.012979891092287204
38	0x3fa08112c01c7e0a	0.032234750701032835
39	0x3f791e77552bb216	0.006132570403434309
40	0x3fa65f61324d7baf	0.0436964391617417
41	0xbf80c78effa7106b	-0.00819312780084421
42	0x3f73489d5f94d93d	0.004707922687251118
43	0xbfb38c8190f63586	-0.07636270321946456
44	0xbf9c12d853619ead	-0.027415638055031156
45	0xbfa79afea99d1337	-0.04610439129331783
46	0x3fb7b0ae1fc2cf91	0.09253967547812027
47	0xbfaf339f6a3ea5a7	-0.0609407250588661
48	0x3fa86d26b6694bf7	0.04770775772762897
49	0xbf9f19387431e8bc	-0.030369646160104166
50	0xbfafbd961c332bb7	-0.061993304197663184
51	0x3fa0b87012605798	0.03265714859314456
52	0xbfb47c59f5e88227	-0.08002245191210787
53	0xbfa0b004780d0234	-0.0325929066225438
54	0x3f87d90ffd0da876	0.011644482526851112
55	0xbf79ae34cb7a3aa3	-0.006269651632136916
56	0xbf96025579a93926	-0.021493278074836607
57	0x3f7cdf2044c013dd	0.007048727082296727
58	0xbfb16d34c3f0b899	-0.06807260307025088
59	0x3f82fed83d2c0b68	0.009275140158484255
60	0xbf4fbcd34acc6dd5	-0.0009685546588999403
61	0x3faded060ac35d2f	0.058448971570835055
62	0xbfa3d867d4f1a4e6	-0.03876041864789119
63	0xbf992675dde4e008	-0.02456077734788667
64	0xbfb7e5c7860d4621	-0.09334990523100163
65	0xbfbb3fa980f74d41	-0.10644015692314658
66	0x3fa04c104908c2aa	0.03183031932383547
67	0xbf916eca37fdc835	-0.017024192492904617
68	0xbfa2a9bbb363cbfe	-0.03645121159379271
69	0xbf8cb7d606f102b4	-0.01402251442607514
70	0xbf8fbd1bb831d1b0	-0.015497414168046258
71	0x3fac45c2d356dd51	0.05521973447633378
72	0xbfb26696301ac0dc	-0.07187784838129424
73	0xbfb2c8c1f2015304	-0.07337581785516184
74	0x3f92fe3d64b9a362	0.01854797293927691
75	0x3fb4a5621d915307	0.08064854833476086
76	0xbf750ef55bce69ea	-0.005141218597510358
77	0xbfb34730c984daa7	-0.0753050319661762
78	0x3fa33177b5e1674f	0.0374867829820703
79	0xbf9b0d14fad790e0	-0.026417091188606245
80	0x3faa53995c37a382	0.05141906023693023
81	0x3f842a2bc3bd7b49	0.009846059714332294
82	0x3fa7f5d2cc78a1d5	0.04679735895144047
83	0x3fa506ce713bbed4	0.041067553827699804
84	0xbfa12e7d53e96306	-0.03355781220733971
85	0x3fb4e81f96e17b89	0.08166692193615978
86	0x3f8043747a86abc7	0.007941160191725317
87	0xbfac503d6d81af32	-0.055299682252409346
88	0xbfaa3352e306544d	-0.05117281934068583
89	0xbfa8fbb85a0e78b6	-0.04879547213862294
90	0xbfb36e494f567ea5	-0.07590158640823093
91	0x3faf4cfa095b6887	0.06113416065427751
92	0xbfbfc2ce00e6d26b	-0.12406623384488007
93	0xbf9ad11d43bb883a	-0.0261883328047434
94	0x3fb6900e53f23dca	0.08813561963528752
95	0xbf9c9a1af8399f52	-0.027931615257699
96	0x3fc37605591a4eb4	0.15203921175690527
97	0xbfa398ceb9637c02	-0.03827520382923667
98	0xbf95ba8000d9e728	-0.021219253589584458
99	0x3f9339601e0a2d8f	0.018773557504159263
100	0x3fa791b48b846e25	0.046033517867013075
101	0x3f74e389e163da14	0.005099810214451956
102	0xbfa32d9624ecffdb	-0.037457172400990855
103	0x3fb7958210671c6a	0.0921250619932025
104	0x3f9e1edf2928c970	0.029414641272702935
105	0xbfa3251d7f3f5ac9	-0.037392541678561715
106	0xbf90245fc0d2bbc7	-0.015763755935662063
107	0x3fa3f1078150aa55	0.03894828275254684
108	0xbf80f2345119b189	-0.008274468159662944
109	0x3fbabe34611dc0db	0.10446479197503626
110	0x3f94c597ad30a23e	0.02028500551765177
111	0x3fa07e9787bcf939	0.0322158196636217
112	0xbfb859190e4fc694	-0.09510952567486647
113	0x3f80acf19283d240	0.0081423638189132
114	0x3f9a73027ef97ae1	0.02582935237875972
115	0xbf9e0a2f23be727e	-0.02933572440780318
116	0xbf9515b3bca6ace6	-0.02059059943136967
117	0xbfa49f4071059974	-0.04027749423657925
118	0xbf874c715cdae455	-0.011376271864138735
119	0xbfa30ce483571cd2	-0.03720773795390077
120	0x3fb77594578f4a70	0.09163787019432745
121	0x3faf1cb6e22f336f	0.06076594840087678
122	0x3fb3b8b872cc5b8a	0.07703736117069418
123	0x3f8470038d4c742b	0.009979274510948674
124	0xbf75a4a4efefa07d	-0.005283970152028525
125	0x3fb3681ca30881ea	0.07580737095168613
126	0x3f794653a1fd43dd	0.006170584383498015
127	0x3fa1f0bb201642eb	0.03503975645720011
128	0xbfb285baef05f0cc	-0.07235306106116751
129	0x3fa388332cef5e21	0.038148497805817756
130	0xbf8f73df5f8c7110	-0.015357728103076812
131	0xbfa6f49516d589de	-0.044834765469903934
132	0x3f7c698ac3b22bb4	0.006936590241035146
133	0xbfa67045fb8fd7a7	-0.043825327833402476
134	0xbfa0a35d1a864ba2	-0.03249636601244467
135	0x3fb2a5392f1feca4	0.07283360863214
136	0xbf9f9ec97cec4a76	-0.03087916207284499
137	0xbf9fe25b0edee2d6	-0.03113691595328557
138	0x3f95f033810922d9	0.021424107313836458
139	0xbf921281e5f7dfbf	-0.01764872518648963
140	0x3fa9ae10e9fbe9ee	0.050156143724922816
141	0xbfb54cdf23ccdab2	-0.08320421813992132
142	0x3f8e52b48c88f74b	0.014806185282505565
143	0xbfb451796bdc4ee7	-0.07936819918932835
144	0xbf970f2c28e27977	-0.022518815989877674
145	0xbfa1f0be87c47e51	-0.03503985793417697
146	0xbfa8632b0e0bde36	-0.04763159319366787
147	0x3fa5620e9d60951c	0.04176374121770207
148	0xbf856917d4f4a136	-0.010454355417622279
149	0xbfa602f8507322fa	-0.04299140913059847
150	0x3f9b59eb7b1c3665	0.026710204495478247
151	0x3fa558ec1420422c	0.04169404740980939
152	0x3fa4e6eb066b9034	0.04082426503535466
153	0x3fa80e98beac7e07	0.04698636367379199
154	0x3fb00ef7cbc851a5	0.06272839284094418
155	0x3fae02a469ec73a4	0.05861390870106867
156	0x3fa8ca17a6e62bfe	0.04841684257834088
157	0xbfb1eedf16840c8c	-0.07005113887503195
158	0x3fa4fcdabf780e8a	0.040991626618077495
159	0x3fab6cd6a8c42be4	0.05356474695334848
160	0xbf9177f664b06d7f	-0.017059183021144172
161	0xbfa098b03c825a0f	-0.032414920221686676
162	0xbf7849c75ef53160	-0.005929735939684683
163	0x3fa2dfcd4bef1a08	0.03686372329643822
164	0x3f77617a4ae5afb5	0.005708196359005703
165	0x3f4949ccc25366a7	0.0007717370796413617
166	0x3fa405c4ff83de68	0.03910651797371828
167	0x3f9513273c1ae51f	0.020580876391908306
168	0x3f752263e43310e5	0.005159750176236798
169	0xbf8dcc73c4528280	-0.01455011790159344
170	0xbfb314d7021ab3f5	-0.0745367412698242
171	0x3f9fb87783d3cfd5	0.030977122708421085
172	0x3fa81a84b28a3924	0.0470773189491516
173	0x3fb450ae80b88ba6	0.07935610430335646
174	0xbf931c42b8577198	-0.018662493230168303
175	0xbf74f1993b709873	-0.005113218844632883
176	0xbf7c51cedc464661	-0.006913955734846406
177	0x3f8f93bdaa5cfdbb	0.015418512116979302
178	0x3f7fb5e0e5414b46	0.00774181222739651
179	0x3fad310bde91f699	0.05701481906815537
180	0xbf9885a5a7396434	-0.02394732316165378
181	0x3f7c473f9ba8a475	0.006903885334886718
182	0x3fb96174d46275b8	0.0991433161275016
183	0xbfb7f2adc0d989c7	-0.09354673345800456
184	0xbfa4569d9a5e70e4	-0.039723324865208715
185	0x3f7ecba7bb8cdd16	0.007518439488925629
186	0x3fab622fa734ef72	0.05348347583864567
187	0xbf9bb25a0763c1ef	-0.027047545147924564
188	0xbfa0af61a79c3edf	-0.03258805438065137
189	0xbf9061617c6bd24e	-0.015996478289667153
190	0x3f5d378fcddf7cdb	0.0017832664811903629
191	0xbf937342187ef71c	-0.01899436258803809
192	0x3fa074f43a82ea5d	0.03214228834390973
193	0x3f98f3e8b67710a5	0.024367939125810385
194	0xbf80f67bbde59fc1	-0.008282629711814484
195	0x3fa7be8352a6cb99	0.0463753736870764
196	0xbfb2dd06b1624f60	-0.07368509131111756
197	0xbfabb197c510c9fa	-0.05408930092416493
198	0xbfaeb27e6faa53af	-0.059955550318739774
199	0x3f8d5c637bdc3179	0.014336373536502066
200	0xbfa27e925e142e71	-0.0361219158022238
201	0xbf92e8fe75ca05c3	-0.018466926516799164
202	0x3f9f64fc7e6b8475	0.030658669677795253
203	0xbfb882c0c911f23e	-0.09574513348520328
204	0x3f9517654cc89807	0.020597060023781946
205	0x3f90479ec1bf6bbb	0.015898209166930615
206	0x3fb1ab5569a2af4c	0.06902059391967191
207	0x3fb223acafb22d7e	0.07085685052350318
208	0xbfa059552d267ca5	-0.0319315545668755
209	0x3fa521057e70f65e	0.04126755875084308
210	0x3f9755146bd5f88b	0.022785491067673063
211	0xbf8abeefcc978526	-0.013059495383404295
212	0xbf92855b2234a9df	-0.018086837733031543
213	0x3f827df931eefcd6	0.009029337726927638
214	0x3f5ba1b7b12f3a16	0.0016865056866098896
215	0xbfb59e079434e51c	-0.08444259041143137
216	0x3f5a600fe85e38f1	0.0016098170612824337
217	0x3fa944c7393bb8d8	0.04935286115311194
218	0xbfa27b446360b99a	-0.036096703654368414
219	0xbfb3177f1aab3adc	-0.07457727814765341
220	0xbfb0e17be677028b	-0.06594061256965682
221	0xbf9ff7f0c6912b8e	-0.031219255561420627
222	0x3f92dba35b3a500c	0.018415977900602384
223	0xbf6203dd93904993	-0.0021991088547192532
224	0x3faa89d3729e2d6d	0.051832778684082516
225	0xbf70bd280d6d875e	-0.004086643652813608
226	0xbf7375e720750681	-0.004751112784391887
227	0x3faa2ce8acbe9d0f	0.05112387760828529
228	0x3fb11664eb53563e	0.06674795861484825
229	0xbfa0423f8589e9b6	-0.03175543313132627
230	0x3fa647ab6bd8670c	0.04351554576369496
231	0xbfb7c109b6a7fd78	-0.09278927525882874
232	0x3faf684be6c4d4aa	0.061342594070461345
233	0x3f8e8f05212e6fc7	0.01492122657310081
234	0x3f985e1d05609ba4	0.023796513989647786
235	0x3fbc2884096842f7	0.1099932215659115
236	0x3f9ecbbb25ec6b6e	0.030074047269504182
237	0xbfa77d3d78313ecb	-0.04587738125030468
238	0xbfb6735da65e928e	-0.08769784271005163
239	0x3fa4cd8e4077c9c9	0.04063076531373928
240	0x3fb5667a5f14daea	0.08359494038891638
241	0x3f941a61ecefbaa2	0.0196318913330581
242	0xbfb09a9c660bfd41	-0.0648591755998398
243	0x3f9378781081c422	0.01901424027204624
244	0xbf72b2032f25e02e	-0.004564297140284208
245	0xbfb728ad170bcf17	-0.09046441853189112
246	0xbfa6fc634c958201	-0.04489431676734413
247	0x3fb355990d3312f9	0.07552486965421314
248	0x3fb10d301375303e	0.06660747981112622
249	0xbfa4f909ea5b7cf0	-0.04096251474197199
250	0x3f9dee10df86c61d	0.029228461878750268
251	0xbf4b7e241f82588e	-0.0008390118009795765
252	0xbfadc73f3d7dc95d	-0.05816075921656492
253	0xbf8b655f89dd8e0e	-0.013376947779483419
254	0x3f9c40724ba2922d	0.027589593759915033
255	0x3f53490478780649	0.0011770766885778208

arr_1 f8 [35]
0	0x3fd9696ffa7f10c3	0.39706038916143543
1	0xbfe0cf4976033add	-0.5253035836156773
2	0x3f61213779a42dc6	0.0020910342692610244
3	0xbfe1e523a70a27b4	-0.559221101998665
4	0xbfac629cdfedde82	-0.05543985589514212
5	0x3ff45f4e8e142719	1.2732682752561628
6	0xbfeea5be4d050c02	-0.9577323440829562
7	0x3fed244c85996d4d	0.9106810197221563
8	0xbfd7c5169ccdd2dd	-0.3714043170250941
9	0xbfe5106cbe749871	-0.658254978164008
10	0xbfba854370077f6f	-0.10359593854036374
11	0x3feee2b627522301	0.9651747482285772
12	0xbfc677410328bb76	-0.17551434187177123
13	0xbfd23bc0c5259df5	-0.2848970341933346
14	0xbfd5d38ff17e8ce1	-0.34103773673468935
15	0x3fede93417a632dc	0.9347172223948195
16	0x3fd9baa9ec3fc891	0.40201805182653866
17	0x3fedca928b087158	0.9309780803192025
18	0x3ff2c11ca01178c9	1.1721464398065555
19	0xbfd93b97c7b2b09e	-0.3942622614074568
20	0x3fd3efe3a878ffc8	0.3115166802635909
21	0x3fec8d44bf9ee1c3	0.8922446959104992
22	0x3ff6c41b2f2e90ab	1.4228774874727985
23	0x3fd355b5ff6f3555	0.30210637993589745
24	0xbfe255dce3d254a3	-0.5729813050881102
25	0xbff1822f06d5968f	-1.094283129402729
26	0x3fcee8bb5c142a00	0.24147741313966264
27	0xbfecfde3b6bdb703	-0.9059923714791868
28	0xbfef6fda951fd329	-0.9824040329536717
29	0xbff0e3f8c6612b35	-1.0556571721269397
30	0xbfc8c0ce095e3162	-0.19338393647593494
31	0xbff012a86266cf70	-1.0045551151096923
32	0x3fd337691478e9a8	0.30025698661088507
33	0xbfc785b518dfe3f4	-0.18376792635515893
34	0xbfa3ee29f9241753	-0.03892642179748287
